model.pth (torch, 9031 bytes, 6 tensors)

recurrent_layer.weight_ih_l0 f4 [32, 45]
0.1862838 -0.13255894 0.5309034 -0.10280217 0.124401644 0.49299225 0.030026384 0.103866726
-0.05380998 -0.034802813 -0.3975206 0.038842026 -0.001059195 -0.24084593 0.2932513 0.26055515
-0.51131994 0.09820082 0.19656432 0.035369676 0.4523296 -0.43576664 0.07831522 -0.15438582
-0.18869835 0.28100705 0.07692613 0.28816184 0.09412253 0.25042772 -0.2942732 -0.12293489
-0.079490684 0.032067157 0.30701327 0.1564786 0.35536012 -0.36611307 0.28714564 -0.028533692
0.16680366 0.13732314 -0.14153714 0.023369992 0.38558608 0.47396773 -0.034033567 0.2716787
0.0907693 -0.11665117 0.37187093 -0.0794397 -0.28875738 0.23622447 0.15546346 -0.104593486
0.5141656 -0.10232348 -0.017093671 0.08215594 0.3686989 0.08162155 0.4231113 0.50781167
0.3816552 0.7041434 -0.1972212 -0.0882172 0.49602905 0.32389832 -0.011325383 0.6692577
0.3435088 0.017536016 0.17507385 -0.09312101 0.026195731 0.13551965 -0.008708886 -0.055137526
0.59553313 0.28487435 -0.19760029 0.40027383 0.42808357 -0.22544913 0.18519975 0.042396057
-0.15211698 0.43026987 0.15532695 -0.0040081968 0.111331224 0.14853394 -0.0857242 0.20002532
0.20529364 0.03176096 0.14325836 -0.0187486 -0.16009627 0.17048119 -0.015890626 0.07343068
-0.07674444 -0.04410523 0.27809578 -0.13568123 -0.3806974 0.00020924011 0.22734922 0.29549026
0.24602841 -0.13291629 -0.11458719 -0.02248209 0.096398175 -0.14392392 -0.2546511 0.3150312
0.2890218 -0.21176824 -0.16171817 -0.18593046 -0.084658675 0.34189585 -0.31336614 0.20610698
-0.027339227 0.26144823 -0.15271513 0.25871274 -0.3266915 -0.0006110983 -0.015232249 0.29592174
0.08481231 0.14610313 0.0058166995 0.50865185 -0.121307164 -0.053662833 -0.15161689 0.51726735
0.22007255 -0.23628403 0.2998176 0.38411692 0.13202278 0.34828165 -0.06713057 0.23541994
-0.12823324 0.2434319 0.112372465 -0.010037176 -0.17666939 0.13417746 -0.23224638 0.19946413
-0.10008041 0.5385182 0.098846205 -0.43796933 -0.16774312 -0.04396452 -0.06285989 -0.17544039
-0.15349437 -0.13786447 -0.051432386 -0.13976495 0.14840536 0.09215024 0.14171755 0.26622492
0.3071417 -0.057210144 -0.343138 0.5939874 0.23473799 0.51864284 0.05971315 0.067728326
0.2432842 0.34454876 -0.18703909 0.2673236 -0.096339114 -0.29756975 0.23970449 0.2593268
0.40339893 0.33304274 0.5442077 -0.15589537 -0.1727892 0.13922936 -0.26169407 0.105904445
0.016321573 0.18602064 0.8672773 0.042437196 -0.20808277 -0.1946678 0.14484932 -0.4796988
0.044904962 0.30847603 -0.21387391 0.085597776 0.3986581 0.3109219 -0.05946901 0.39404413
-0.051386286 -0.13798855 0.406891 -0.005540485 0.5176113 0.41572127 0.15646544 0.57194835
0.57623667 0.013949892 -1.0706929 0.3062589 -0.1837656 -0.14947225 0.21429165 -0.26815903
-0.16246764 0.35309556 0.22251602 -0.663168 0.13636796 -0.059199892 -0.055380434 -0.21322937
0.23671366 0.002999843 0.5074348 -0.26650858 0.3327712 0.4454069 -0.01846517 -0.37036958
-0.08392024 -0.03318418 -0.27519292 -0.015012946 -0.2553792 -0.011976923 0.17667948 0.32923287
00000000: 2ec1 3e3e 88bd 07be 49e9 073f f289 d2bd
00000010: 4ac6 fe3d 7b69 fc3e e4f9 f53c 14b8 d43d
00000020: db67 5cbd 658d 0ebd d287 cbbe d118 1f3d
00000030: b0d4 8aba 51a0 76be 0925 963e 7c67 853e
00000040: dde5 02bf 831d c93d 2848 493e cbdf 103d
00000050: bf97 e73e ce1c dfbe bb63 a03d 5117 1ebe
00000060: 243a 41be 28e0 8f3e 728b 9d3d f389 933e
00000070: 50c3 c03d 1038 803e faaa 96be 4ac5 fbbd
00000080: 03cc a2bd da58 033d d830 9d3e ed3b 203e
00000090: c3f1 b53e 2c73 bbbe c104 933e 7dbf e9bc
000000a0: 94ce 2a3e 709e 0c3e 1def 10be 6d72 bf3c
000000b0: 8a6b c53e e6ab f23e c866 0bbd 7819 8b3e
000000c0: 41e5 b93d cfe6 eebd de65 be3e 48b1 a2bd
000000d0: 02d8 93be d4e4 713e d031 1f3e 1c35 d6bd
000000e0: 5ba0 033f f98e d1bd 0708 8cbc 6041 a83d
000000f0: 1ac6 bc3e 3329 a73d 0ba2 d83e f2ff 013f
00000100: 4f68 c33e be42 343f 5bf4 49be 38ab b4bd
00000110: 85f7 fd3e 00d6 a53e 198e 39bc 7954 2b3f
00000120: 63e0 af3e b1a7 8f3c 8f46 333e 3ab6 bebd
00000130: 6e98 d63c aac5 0a3e b7af 0ebc e3d7 61bd
00000140: dc74 183f 0ddb 913e bb57 4abe b1f0 cc3e
00000150: c52d db3e 23dc 66be 01a5 3d3e 7da7 2d3d
00000160: 8ec4 1bbe 554c dc3e 070e 1f3e 3157 83bb
00000170: a001 e43d 4819 183e 2b90 afbd 70d3 4c3e
00000180: 7f38 523e c817 023d 52b2 123e aa96 99bc
00000190: 47f0 23be 9f92 2e3e 0f2d 82bc d362 963d
000001a0: 302c 9dbd b0a7 34bd 9262 8e3e 05f0 0abe
000001b0: c5ea c2be 7767 5b39 3cce 683e 804a 973e
000001c0: dfee 7b3e 351b 08be b0ac eabd 5c2c b8bc
000001d0: 686c c53d cb60 13be a161 82be c54b a13e
000001e0: aafa 933e c6d9 58be 7399 25be 8e64 3ebe
000001f0: 8761 adbd f90c af3e 8771 a0be b50d 533e
00000200: 84f6 dfbc 8bdc 853e 5b61 1cbe ff75 843e
00000210: 1c44 a7be 1d32 20ba af90 79bc 0e83 973e
00000220: 14b2 ad3d 0f9c 153e 039a be3b 0237 023f
00000230: e46f f8bd 8fcd 5bbd 7541 1bbe a26b 043f
00000240: b35a 613e 71f4 71be b181 993e f9aa c43e
00000250: fb30 073e f951 b23e c17b 89bd ed11 713e
00000260: 934f 03be 3646 793e 8923 e63d f872 24bc
00000270: d2e8 34be d165 093e ffd1 6dbe 5340 4c3e
00000280: f5f6 ccbd 54dc 093f e16f ca3d 843d e0be
00000290: dac4 2bbe 2414 34bd b0bc 80bd a5a6 33be
000002a0: a12d 1dbe 582c 0dbe c4aa 52bd 8b1e 0fbe
000002b0: 93f7 173e 44b9 bc3d 681e 113e a24e 883e
000002c0: ad41 9d3e 2f55 6abd c9af afbe 8f0f 183f
000002d0: 285f 703e c7c5 043f c795 743d 26b5 8a3d
000002e0: 7e1f 793e b268 b03e 2d87 3fbe a4de 883e
000002f0: 714d c5bd 105b 98be 1875 753e 7bc6 843e
00000300: 4e8a ce3e 9484 aa3e 3251 0b3f 09a3 1fbe
00000310: a7ef 30be 2492 0e3e c4fc 85be 6ee4 d83d
00000320: d2b4 853c 327c 3e3e e305 5e3f a0d2 2d3d
00000330: a613 55be ff56 47be 6153 143e 159b f5be
00000340: 44ee 373d 92f0 9d3e c301 5bbe e34d af3d
00000350: ea1c cc3e 2831 9f3e c795 73bd 27c0 c93e
00000360: 6d7a 52bd df4c 0dbe 0454 d03e f58c b5bb
00000370: 2d82 043f 6bd9 d43e 7a38 203e 356b 123f
00000380: 3f84 133f 168e 643c 770c 89bf f7cd 9c3e
00000390: 0d2d 3cbe 410f 19be 456f 5b3e 244c 89be
000003a0: eb5d 26be f1c8 b43e 3ddb 633e 61c5 29bf
000003b0: 0ba4 0b3e 967b 72bd 98d6 62bd cd58 5abe
000003c0: 1165 723e 0499 443b 3fe7 013f d073 88be
000003d0: fd60 aa3e 600c e43e 4544 97bc 15a1 bdbe
000003e0: 60de abbd 22ec 07bd 16e6 8cbe dcf8 75bc
000003f0: 10c1 82be db3a 44bc 77eb 343e 3691 a83e

recurrent_layer.weight_hh_l0 f4 [32, 8]
0.17926785 -0.24409834 0.17349839 0.14949334 -0.2792837 0.1658567 -0.1253674 0.15659013
0.014529464 -0.04833593 -0.048385695 -0.01655225 -0.32315207 -0.0033924629 -0.28762645 0.07889783
0.07454632 0.19819182 0.24856108 -0.032387514 -0.06709767 -0.3271928 0.078741066 -0.08914156
0.24567436 -0.4224269 0.050339926 -0.2157123 -0.31687948 0.119708255 0.10255146 0.19563502
0.20717993 -0.33127287 -0.009990985 0.51046365 0.103979 0.25253356 0.02915203 -0.015384753
0.0429619 -0.25490367 -0.11996105 -0.009451909 -0.2465198 -0.3231174 0.02257032 -0.127601
0.3632414 -0.29816848 -0.25795576 0.31561005 0.12422358 -0.087416396 0.22906823 -0.027507812
0.07639108 0.012311216 -0.32636702 -0.10660908 -0.03144894 0.14801958 -0.09284937 -0.04021787
-0.015300685 0.27370858 0.04431891 0.08796804 0.17223409 -0.014614523 -0.09074118 0.2877964
-0.55933523 -0.54155546 0.38083473 -0.6285653 0.121809 0.21529073 0.002774095 -0.19212985
0.077780016 0.20813064 -0.18094988 -0.29567224 0.2728659 0.272302 0.37419713 -0.21819541
0.03974825 0.283374 -0.16261029 0.14482056 0.018112114 0.2648493 -0.10546753 0.20731467
-0.15743001 -0.045759413 0.16125828 -0.35532793 0.16710071 0.16315956 -0.11492403 -0.20123701
0.09132033 0.06656568 0.22061078 -0.3294379 0.12179352 0.19388612 -0.17797609 -0.11090877
-0.2630129 -0.21182287 0.06400706 -0.3624686 0.04019347 -0.06583765 0.076039046 -0.028818658
0.02253224 -0.200331 0.10490295 -0.33416232 0.02160011 0.21518388 0.10698073 -0.0026650687
-0.3683525 0.079310015 -0.19808617 -0.16786885 -0.07446689 0.16407754 -0.16406992 0.21418214
-0.350387 0.101736754 0.32072556 -0.3301887 0.26142794 0.05436331 0.00066724303 -0.15056083
0.014489743 0.33685097 0.12459975 -0.00045489141 0.19588806 -0.032820504 -0.046690427 -0.31905505
-0.1705095 -0.32469958 0.11643631 0.061284453 0.071564995 -0.19482857 0.22705822 -0.26756728
0.12601875 -0.026467917 -0.063325934 0.20818222 -0.21863307 0.064367555 0.10204627 0.11557135
0.14629073 -0.12786077 -0.111651376 -0.0050301654 -0.08797152 -0.22915237 0.089980856 0.23662797
0.18922716 0.094862044 0.050909843 0.02836237 0.07165554 0.1893738 -0.03764923 -0.23403336
-0.09840385 0.029354421 0.11166633 -0.15117845 -0.024002932 -0.022652302 -0.013231851 -0.060352203
0.08016858 -0.102562316 0.19402656 0.14163259 0.1981573 -0.16492406 -0.02634544 -0.22737561
0.046314485 0.046305336 -0.3967416 -0.041614145 -0.4587963 -0.20180331 0.097364336 -0.119763635
0.0055924533 0.30214268 0.19723995 0.073406965 -0.073325746 0.11183931 -0.093927965 0.19765575
0.24202101 -0.1904032 -0.36834702 0.11548289 0.14464715 -0.20115578 -0.087400936 0.3387335
0.33222255 -0.12834767 -0.032115843 0.42774436 -0.28726062 0.14585297 0.25075158 0.34985533
0.285646 -0.30631396 -0.19074975 -0.053708762 0.11117767 -0.072332755 -0.12900998 0.36485663
0.093470186 -0.20732145 -0.04009466 -0.17939834 -0.17791913 0.16000439 0.15759994 -0.16140376
0.35411805 -0.17177467 -0.21136613 0.29039407 -0.19498928 -0.10988047 0.14070107 -0.16805418
00000000: fe91 373e eaf4 79be 90a9 313e c814 193e
00000010: 46fe 8ebe 57d6 293e 5060 00be 2a59 203e
00000020: fd0c 6e3c e5fb 45bd 1430 46bd 9698 87bc
00000030: 3074 a5be 1554 5ebb c643 93be 2f95 a13d
00000040: beab 983d ccf2 4a3e cc86 7e3e c5a8 04bd
00000050: 816a 89bd d185 a7be ff42 a13d da8f b6bd
00000060: 0f92 7b3e 5748 d8be 3d31 4e3d afe3 5cbe
00000070: 073e a2be 9a29 f53d 8006 d23d 8c54 483e
00000080: fa26 543e 999c a9be 3ab1 23bc bfad 023f
00000090: f1f2 d43d 144c 813e 3dd0 ee3c 5510 7cbc
000000a0: d1f8 2f3d bc82 82be 24ae f5bd 2edc 1abc
000000b0: b06f 7cbe a56f a5be 64e5 b83c d6a9 02be
000000c0: c7fa b93e 8aa9 98be c712 84be a497 a13e
000000d0: ef68 fe3d 5e07 b3bd dd90 6a3e 1058 e1bc
000000e0: ed72 9c3d fcb4 493c 9419 a7be dd55 dabd
000000f0: 9bd0 00bd 7292 173e cf27 bebd 7ebb 24bd
00000100: b9af 7abc 8823 8c3e bf87 353d 9628 b43d
00000110: 225e 303e c171 6fbc 83d6 b9bd 0d5a 933e
00000120: 9830 0fbf 61a3 0abf c5fc c23e a8e9 20bf
00000130: ff76 f93d 2c75 5c3e 97cd 353b b0bd 44be
00000140: 214b 9f3d 3320 553e ed4a 39be 5a62 97be
00000150: 14b5 8b3e 2b6b 8b3e c496 bf3e 9e6e 5fbe
00000160: 10cf 223d 6616 913e 5083 26be d74b 143e
00000170: db5f 943c 549a 873e 5cff d7bd 4c4a 543e
00000180: 5535 21be 396e 3bbd e420 253e 8bed b5be
00000190: 731c 2b3e 4d13 273e 4a5d ebbd 1311 4ebe
000001a0: 2706 bb3d 9653 883d cbe7 613e 16ac a8be
000001b0: e26e f93d 158a 463e 5d3f 36be 2324 e3bd
000001c0: a0a9 86be 18e8 58be 2216 833d 7c95 b9be
000001d0: e8a1 243d e4d5 86bd 5cba 9b3d 1b15 ecbc
000001e0: 8895 b83c 9223 4dbe 5cd7 d63d 5317 abbe
000001f0: b7f2 b03c 2a59 5c3e b718 db3d 6fa8 2ebb
00000200: b398 bcbe 4a6d a23d 1ad7 4abe d0e5 2bbe
00000210: 1982 98bd f103 283e f201 28be 9052 5b3e
00000220: ed65 b3be 5c5b d03d 2436 a43e 7e0e a9be
00000230: e2d9 853e 10ac 5e3d ece9 2e3a 9e2c 1abe
00000240: 6366 6d3c bb77 ac3e 272e ff3d 7e7e eeb9
00000250: e196 483e cb6e 06bd 763e 3fbd 2f5b a3be
00000260: 0b9a 2ebe 063f a6be 2976 ee3d 6805 7b3d
00000270: ab90 923d 2481 47be f381 683e 94fe 88be
00000280: 0f0b 013e 3fd3 d8bc 07b1 81bd b82d 553e
00000290: 59e1 5fbe 23d3 833d a3fd d03d acb0 ec3d
000002a0: 3dcd 153e efed 02be 7aa9 e4bd 16d4 a4bb
000002b0: 6a2a b4bd eba6 6abe e247 b83d 9a4e 723e
000002c0: c4c4 413e 0847 c23d d786 503d 3358 e83c
000002d0: 24c0 923d 35eb 413e 1436 1abd 71a6 6fbe
000002e0: f587 c9bd af78 f03c 51b1 e43d 86ce 1abe
000002f0: cca1 c4bc 5291 b9bc 68ca 58bc df33 77bd
00000300: 6d2f a43d 310c d2bd e6ae 463e 2208 113e
00000310: bfe9 4a3e dae1 28be 64d2 d7bc 27d5 68be
00000320: 42b4 3d3d aaaa 3d3d b721 cbbe 9873 2abd
00000330: 59e7 eabe 87a5 4ebe f466 c73d a346 f5bd
00000340: e640 b73b 72b2 9a3e 45f9 493e 6456 963d
00000350: cf2b 96bd 020c e53d 4e5d c0bd 4566 4a3e
00000360: 5bd4 773e 0ef9 42be fb97 bcbe 4b82 ec3d
00000370: 621e 143e c8fb 4dbe 43ff b2bd 7a6e ad3e
00000380: 1319 aa3e 926d 03be e78b 03bd 4f01 db3e
00000390: d313 93be 7b5a 153e 8362 803e 3d20 b33e
000003a0: 3140 923e 2fd5 9cbe e753 43be b8fd 5bbd
000003b0: 1eb1 e33d 3223 94bd 311b 04be 7dce ba3e
000003c0: 4c6d bf3d 134c 54be 4c3a 24bd 33b4 37be
000003d0: 6f30 36be 31d8 233e e161 213e 0747 25be
000003e0: f64e b53e b3e5 2fbe 5d70 58be 88ae 943e
000003f0: 45ab 47be 0309 e1bd f113 103e 6516 2cbe

recurrent_layer.bias_ih_l0 f4 [32]
0.30082238 0.73725045 -0.22309016 0.41946816 0.64214194 0.2984083 0.8550942 0.71945393
-0.1959564 -0.12676647 -0.0011698734 -0.3288028 -0.2030847 -0.6678211 -0.4371831 -0.67217374
0.22981288 -0.39827615 -0.3164586 0.70046 -0.09619526 0.26216772 0.087731555 -0.3025597
-0.05849462 -0.060222268 -0.3997286 0.2332421 0.17924018 0.6153829 0.28097895 0.19753696
00000000: 6405 9a3e 72bc 3c3f bf71 64be 88c4 d63e
00000010: 6a63 243f f9c8 983e 74e7 5a3f 222e 383f
00000020: cba8 48be 12cf 01be 7056 99ba d758 a8be
00000030: 70f5 4fbe 53f6 2abf 77d6 dfbe 9413 2cbf
00000040: 1154 6b3e daea cbbe dd06 a2be 5951 333f
00000050: 0502 c5bd d93a 863e 9aac b33d 1be9 9abe
00000060: 0e98 6fbd a0ab 76bd 3aa9 ccbe 04d7 6e3e
00000070: bd8a 373e bc89 1d3f 79dc 8f3e 2147 4a3e

recurrent_layer.bias_hh_l0 f4 [32]
0.34276754 0.71860355 -0.21391207 0.17780265 0.3563016 0.6504169 0.9600065 0.15463094
-0.13248938 -0.5576929 -0.09854403 0.09204041 -0.61329937 -0.21296363 -0.6955094 -0.80641615
-0.14739506 -1.0636051 0.02530427 0.2772712 -0.04318047 0.1556322 0.059334584 -0.49454018
-0.22282687 -0.34670225 -0.52984434 -0.0004011974 0.6608468 0.2410821 0.270749 0.18490157
00000000: 3a7f af3e 67f6 373f c40b 5bbe e611 363e
00000010: 2a6d b63e b981 263f fcc2 753f 9357 1e3e
00000020: 4cab 07be f6c4 0ebf 74d1 c9bd af7f bc3d
00000030: 3001 1dbf 2313 5abe e70c 32bf 4a71 4ebf
00000040: bbee 16be 3624 88bf e74a cf3c 7ef6 8d3e
00000050: 01de 30bd 0c5e 1f3e d208 733d 5f34 fdbe
00000060: ba2c 64be f582 b1be e1a3 07bf ce57 d2b9
00000070: 422d 293f 3ade 763e 9d9f 8a3e d656 3d3e

project_layer.weight f4 [4, 8]
0.46237105 1.0931531 1.5460135 0.18954644 1.1056075 -0.51243675 -1.2863039 1.2012652
0.5451553 -0.82718986 -1.1080445 -2.5528045 0.6659737 0.4273842 -0.37688148 -2.2488365
-1.1187319 -1.757126 0.6925113 1.1827856 0.46210504 -1.1772035 2.4698706 2.1041124
-1.0108277 1.5498867 0.43083608 0.6047629 -1.5930064 1.0483445 -0.044902228 -2.0683386
00000000: e6bb ec3e 71ec 8b3f c5e3 c53f 7618 423e
00000010: 8c84 8d3f 0e2f 03bf 9ba5 a4bf 0fc3 993f
00000020: 4c8f 0b3f b7c2 53bf 67d4 8dbf 2661 23c0
00000030: 417d 2a3f 1ad2 da3e 9cf6 c0be f0ec 0fc0
00000040: 9b32 8fbf 81e9 e0bf 6c48 313f 8565 973f
00000050: 0899 ec3e 9bae 96bf 5c12 1e40 c7a9 0640
00000060: cd62 81bf b062 c63f 8c96 dc3e bed1 1a3f
00000070: a2e7 cbbf 2730 863f 66eb 37bd a95f 04c0

project_layer.bias f4 [4]
-1.2171797 1.0742978 0.16139802 -0.67802334
00000000: 8bcc 9bbf 9782 893f 8645 253e f092 2dbf
